models/tiny_cnn.pth (torch, 249299 bytes, 10 tensors)

features.0.weight f4 [16, 3, 5, 5]
000000 c7 db 0f bd 61 6b e4 bd 7b 6a 14 bc 11 aa 8e bd
       -0.035121705 -0.111532934 -0.00905859 -0.06966031
000010 60 b6 2e bd 4d bd 9a 3d 7b f0 81 3d 95 04 04 3d
       -0.042654395 0.075556375 0.06344696 0.032230932
000020 2c 98 f6 bd 3e 8f a6 bc 6b 5e e3 bc 6a 7f 86 3d
       -0.12040743 -0.020331975 -0.027754983 0.06567271
000030 1b 6b 61 bd f0 62 92 bd b1 d0 88 3c 76 d8 75 3d
       -0.055033784 -0.07147777 0.016701074 0.060020886
000040 e1 43 c8 bd 97 4d 3d 3d 5a d2 75 3b 46 9a fb bd
       -0.09778572 0.046216574 0.0037509413 -0.12285285
000050 34 3f c2 bd 64 2c 9b bd 2d bc 94 3d 54 76 33 3d
       -0.09484711 -0.07576826 0.07262454 0.04381402
000060 d7 d8 53 3d 8a e1 a4 bd 9e 64 4a bd 8e 7c ed bb
       0.051720466 -0.08050831 -0.049412362 -0.007247514
000070 de 4c 41 3d 70 60 9d bd 2f 15 24 be 44 af f7 bd
       0.047192447 -0.076844096 -0.16023706 -0.12093976
000080 9f a3 70 bd ae a3 aa bd a6 f6 2c bc f8 ef 03 be
       -0.05874979 -0.08332001 -0.010556852 -0.1288451
000090 27 c3 ca bd ee 4b df bd 47 13 f4 bd 0d 92 cc bd
       -0.099005036 -0.10903154 -0.11917739 -0.099887945
0000a0 b2 94 b0 bd 5b ce f6 bd 82 b9 a1 bd 02 a9 d8 bd
       -0.086221114 -0.12051078 -0.07896711 -0.10579111
0000b0 4c 55 0d 3d c3 63 eb bd 68 57 84 bd b8 e0 22 be
       0.034505174 -0.114936374 -0.06461984 -0.15906036
0000c0 11 23 e3 bd c3 b2 b9 bd 36 b3 7a 3b 9a ad c5 bd
       -0.11090673 -0.09067299 0.003825379 -0.096522525
0000d0 e0 55 b4 bd 1c b8 15 bb 72 7b bd b9 ed 0b d7 bc
       -0.08805442 -0.0022845333 -0.00036140863 -0.026250804
0000e0 26 0a 10 be b6 a5 ae bd de a5 08 bd ae b7 0e 3d
       -0.14066371 -0.085277006 -0.03336131 0.03484314
0000f0 fc ca 84 bd 7c 92 8a 3d df 93 69 bd 15 f9 ca bc
       -0.06484029 0.06766221 -0.057025786 -0.024776975
000100 57 52 ea 3c 96 c1 1d be 4e 75 82 bc ba ac 4a bd
       0.028603716 -0.15405878 -0.015925076 -0.04948113
000110 66 63 08 bd 34 fa 31 bc 75 c9 5d bd 09 27 33 bd
       -0.03329792 -0.010862876 -0.054147203 -0.0437384
000120 1c ae 73 bd 01 6d 15 be 8c 6e f3 3c bf fb 93 bd
       -0.059492216 -0.14592363 0.029715799 -0.07225751
000130 c5 33 2a bd b7 48 f9 3d 9b 1d c8 bc 9d 61 c3 bd
       -0.041553278 0.121720724 -0.02442818 -0.09540103
000140 aa 42 b3 3c 53 26 5c bd ec 0a 9c bd ce c5 fa 3d
       0.021882374 -0.053747486 -0.07619271 0.122447595
000150 22 67 32 bd cf 2d 9e 3b 5d e8 6a bd c4 d0 c9 3d
       -0.043555386 0.004827238 -0.057350505 0.09854272
000160 84 64 a1 3d fe 91 e1 bd d2 f1 41 bd ad 61 3d 3d
       0.078805 -0.11014174 -0.04734976 0.04623573
000170 af 4c 35 bd 16 db c0 3d 8f 4e 38 bd 79 f7 a3 3d
       -0.044262584 0.09416787 -0.044996794 0.08006186
000180 34 7b 81 bd 94 df c9 bd bd af 37 bd 75 42 c0 bd
       -0.06322327 -0.09857097 -0.04484533 -0.09387676
000190 31 7a a0 bd ca 19 12 3d 2e a7 b2 3c 5a 31 ec 3d
       -0.07835806 0.035669126 0.021808233 0.115328506
0001a0 2a d9 a9 3d 26 22 42 bd b8 d2 f5 3d 9e e4 01 bd
       0.08293374 -0.047395848 0.12003082 -0.031712167
0001b0 b1 33 fe 3d 5f 7e b9 3d 5c fb a2 bc 55 ba 60 3d
       0.12412203 0.090573065 -0.019895248 0.0548652
0001c0 79 ae d2 3d 83 92 8b 3d 2b 69 db bd 1c 32 a2 bc
       0.10287184 0.06815054 -0.107134186 -0.019799285
0001d0 68 be 09 3d e2 eb 4a bd dd 52 b3 bd 91 29 a9 bd
       0.03362885 -0.04954136 -0.08756039 -0.08259881
0001e0 1c 04 98 bd cd 51 f3 3c e7 4f 60 3b a7 c4 1f 3d
       -0.07422659 0.029702092 0.0034227313 0.0390059
0001f0 9b 8d 9a bd bb 74 5e 3c 96 8d 09 3e d7 54 6d 3d
       -0.0754654 0.013577635 0.13432917 0.057942238
000200 63 3e 83 3d 3f c6 c4 3c 5f 77 27 3c 95 b9 7d 3c
       0.06408384 0.024020312 0.010221331 0.015486141
000210 9e b9 b2 bd b2 a9 72 3d e1 ab b0 bd 5b 07 9c bc
       -0.0872681 0.059243865 -0.08626533 -0.019046476
000220 29 23 20 3d 39 41 44 3d 8f 0e ce 3d 26 e9 08 bc
       0.03909603 0.047913764 0.100613706 -0.008356368
000230 75 b0 e5 bd 76 c3 ca bd e8 2f af 3a eb 1a 07 bd
       -0.11215297 -0.099005625 0.0013365718 -0.032984655
000240 4e 3b 01 be 99 62 eb bd 8d aa 55 3c d1 d5 03 3e
       -0.12620279 -0.114934154 0.013041151 0.12874533
000250 1c f7 52 3d 57 a0 16 3d b4 3f 5c 3d 3f 78 42 bd
       0.051505193 0.036774006 0.05377169 -0.047477957
000260 c1 c1 2d 3d 9c 7b fb 3d 50 f3 a8 3d 23 92 05 3d
       0.042421106 0.12279436 0.08249533 0.03261007
000270 c3 2a 95 bd c8 27 01 3e 2c b4 bf 3c 05 e5 a2 3d
       -0.07283547 0.12612832 0.023401342 0.07953838
000280 14 11 eb 3d cd 0d bc 3d e5 1b 01 3e eb 5d 9f bc
       0.11477867 0.0918232 0.12608297 -0.019453963
000290 73 f6 dc 3c 2d 83 ba 3d e9 9d 10 3e 7a a4 37 3c
       0.026972985 0.09107051 0.14122738 0.011208648
0002a0 25 78 4f bd a2 eb a0 3c 21 4a cb 3d 36 3a 98 bd
       -0.050651688 0.019643608 0.09926248 -0.07432978
0002b0 12 5d 03 3e d5 5a 02 3e 10 07 c3 3a e7 d1 57 bd
       0.12828472 0.12729962 0.0014879424 -0.052690413
0002c0 13 f5 8f bc 2f 9d b6 3c 6d 14 75 3d 4c ae 20 3d
       -0.017572915 0.022291748 0.059833933 0.039228722
0002d0 80 23 46 3d 71 fc 28 bd b9 0a 7d 3d 03 6d 09 3e
       0.0483737 -0.041256372 0.061777804 0.13420491
0002e0 23 15 63 3d f8 68 bf 3d 04 aa c8 3d d6 ab da 3d
       0.05544008 0.09346193 0.09798053 0.10677306
0002f0 2f 25 0a bc 18 89 f1 3d fc e1 08 3d 2d f6 61 3d
       -0.008431717 0.11793727 0.03341864 0.055166412
000300 47 cc c3 3d 07 a7 6c 3d 63 ca 43 bc 90 7a 2a 3d
       0.09560447 0.057776477 -0.011950108 0.04162079
000310 10 8d 9b bd 64 5b 98 3d 73 9c c5 bc a4 ff 45 bd
       -0.07595265 0.074393064 -0.024122452 -0.0483395
000320 3b cb 90 bd 7c 09 c0 3d 14 1d 8c bc aa fd da 3c
       -0.07070013 0.09376809 -0.01710371 0.026732285
000330 19 6d 35 bd 13 f4 d4 bd 57 8a 74 bd 4a 01 cb bd
       -0.044293497 -0.10398116 -0.059702244 -0.09912355
000340 e9 66 18 bd 56 e1 e0 3c 32 33 8d 3d 9a 4b 53 bd
       -0.037207518 0.027451199 0.0689453 -0.05158577
000350 28 df 88 bd c6 49 0a 3d 31 06 0b bd f0 d4 3b bd
       -0.06683189 0.033761762 -0.03394145 -0.04585737
000360 90 62 23 bd 23 0d a5 3b 66 6d dc 3d 61 01 35 3d
       -0.03988892 0.0050369664 0.107630536 0.04419077
000370 af a0 d3 3d ff cf 05 3c ca d9 9f 3b e0 42 06 3e
       0.10333382 0.008167266 0.0048782574 0.13111448
000380 d6 a8 a7 3c bf e7 35 bd a7 8f bc bc 7e 7e e0 bd
       0.02046625 -0.044410463 -0.023017718 -0.109616265
000390 79 93 6a bc 52 3c 3c bd f3 e7 c1 3b 9a 18 69 3d
       -0.014317387 -0.045955963 0.005917543 0.056908228
0003a0 4e a9 ea 3c 62 06 dc bc 18 1a 06 3c 1d cb a9 3d
       0.028645184 -0.026858512 0.008184932 0.08290694
0003b0 a7 bf ea bb f8 64 17 3d e9 88 c2 bd fe c4 23 be
       -0.00716396 0.036961526 -0.0949877 -0.15993115
0003c0 6a cd 53 3d f4 0e 2b 3d 28 55 92 3d ed 3a 75 bc
       0.05170957 0.041762307 0.071451485 -0.014967662
0003d0 81 65 7e bd fa 7a 1c bd 0e da ad bc 31 ea 3b bd
       -0.06210852 -0.038203217 -0.02122214 -0.04587764
0003e0 6c 15 1b 3d 58 bd 5e bb 63 9f 98 3c d6 8a 81 bd
       0.037862226 -0.003398737 0.018630689 -0.06325309
0003f0 22 5c 7d 3d 25 60 8f bb f5 e0 19 bd ec 8a d5 3d
       0.061855443 -0.004375475 -0.03756805 0.10426888

features.0.bias f4 [16]
000000 0b 64 8a bd 8d be 88 3d 5d c7 75 3d e0 23 1c 3d
       -0.06757363 0.0667697 0.06000458 0.03812015
000010 c0 c5 93 3d 89 c8 3b 3d f3 1b 77 bd 64 b8 90 3d
       0.07215452 0.045845542 -0.06032939 0.0706642
000020 fe a4 41 3d 3c 48 a6 3d 70 af 4c bc d0 89 4a 3d
       0.04727649 0.08119246 -0.012492999 0.049447834
000030 e2 4d fc bc 3e 49 ff bc 53 f6 9d 3c a0 2b 89 3d
       -0.030798856 -0.031162854 0.019282496 0.06697774

features.3.weight f4 [32, 16, 3, 3]
000000 dd 2c 80 3d a2 e4 c4 bd c6 b9 c1 bd 94 2e a0 bc
       0.06258557 -0.09613921 -0.094592616 -0.01955346
000010 c5 d7 7f 3d 6a 26 49 bd eb f0 1d 3d 5c 20 3d 3d
       0.062461633 -0.0491089 0.038559835 0.04617344
000020 4c 44 e3 3c 93 6b 87 3d 51 b6 09 3d a5 d7 4e 3d
       0.027742527 0.06612315 0.033621136 0.050498623
000030 c2 86 25 bd 37 95 2b 3d 98 f3 35 bd 1b 33 9a 3d
       -0.04041172 0.04189035 -0.044421762 0.07529279
000040 03 8e dc 3b 0f a1 a9 bc 8b f4 c7 bc bd ea 10 bb
       0.0067307963 -0.020706682 -0.0244086 -0.0022112571
000050 b3 bf 25 bd 3d 6a 89 bb 99 8e 46 bd 6b fb 93 3c
       -0.04046602 -0.004193573 -0.048475835 0.018064221
000060 2a 14 ee bc 1e d0 43 3d e8 60 9b 3c b7 53 9e bd
       -0.02906235 0.047805898 0.018967107 -0.07730811
000070 38 db 88 3c 66 00 63 bd 67 1e 5e bd 16 e6 92 3d
       0.016706094 -0.0554203 -0.054228213 0.07172792
000080 0f 24 f6 3c f8 d1 77 bc 3e f8 9f bd b4 aa 8f bd
       0.030046491 -0.015125744 -0.0781102 -0.07014981
000090 b9 fe 1e 3d 02 49 d7 bc 0a 99 c7 bd 8a 0b 0d bd
       0.03881714 -0.02627993 -0.09745987 -0.034434833
0000a0 d3 77 8a bd e5 5c 17 3d f7 61 9e 3c b2 9d 72 bb
       -0.06761136 0.036953826 0.019333823 -0.0037020263
0000b0 12 62 65 bd d6 4a b0 bc da fd 06 3d bc 9d 13 3d
       -0.05600173 -0.02152006 0.032956935 0.0360391
0000c0 ca 4c 5c bd eb ab a5 3c 7d 09 8e 3c ab e2 41 bd
       -0.05378417 0.020223578 0.017338509 -0.047335308
0000d0 61 2b 56 bd 23 03 02 3d da b1 fa 3c 4d c2 5d bd
       -0.052287463 0.031741273 0.030602384 -0.054140378
0000e0 89 23 80 bc cc 68 61 3d 2a 6e a1 bd 5f 13 8f bd
       -0.015641944 0.055031583 -0.0788234 -0.069861166
0000f0 04 42 7c 3c 52 40 9f ba aa 15 f1 3c b0 34 9d 3d
       0.015396599 -0.0012149906 0.029429276 0.07676065
000100 9b 65 58 3b f4 1a 66 3d e3 c8 6f 3d 5e 49 9d 3d
       0.0033019546 0.05617805 0.05854119 0.07680009
000110 b0 0e 7a bc 7a 37 ce 3c d8 61 5a bd 8b 7f b5 3c
       -0.015262291 0.025172938 -0.053315967 0.022155544
000120 5e 5f 8f bc 4c f2 46 3c 48 10 7b bd 8b d6 5e 3d
       -0.01750153 0.012142729 -0.061294824 0.054403823
000130 33 b1 e0 bd 67 f2 cf bb 5b b1 07 3d ee cf 56 3d
       -0.10971298 -0.0063460353 0.033128124 0.05244439
000140 78 50 40 bd 36 ae a8 3d 59 89 ac bd 54 67 08 bc
       -0.04695174 0.08236353 -0.084246345 -0.008325417
000150 24 50 e4 3c 13 70 40 3d 6a 79 e6 bd 83 83 c7 3c
       0.027870245 0.046981882 -0.11253627 0.024354702
000160 05 e9 36 3d 19 5e d9 bd 99 f7 29 3d a6 ab b9 bd
       0.04465582 -0.10613651 0.041495893 -0.090659425
000170 43 9e b2 bd 7d 81 9c bc 0c 64 84 bc 2a 38 be bc
       -0.08721592 -0.019104714 -0.016160987 -0.02322014
000180 7f f1 f0 bc 79 93 77 3c a5 47 0a bd 66 41 7b bc
       -0.02941203 0.015110844 -0.03375973 -0.015335416
000190 96 6b 44 3d 82 53 af bd d3 32 c1 bd f8 8d 12 3d
       0.047954164 -0.0856085 -0.09433522 0.035779923
0001a0 80 e8 04 bd 6b b2 49 bd a8 1e 8c bb 05 5f 0a bd
       -0.03244829 -0.04924242 -0.0042761154 -0.033782024
0001b0 ee 19 3c bc 3c df 3e 3d ce 23 39 bd 85 30 56 3c
       -0.0114807915 0.04659961 -0.04520016 0.013073091
0001c0 5e 9d ea bb cc bc c8 bd 1a aa ce bb 18 d3 38 bd
       -0.007159873 -0.09801635 -0.006306899 -0.04512319
0001d0 0f 51 66 bd 07 71 fb bc c1 4e 3d bd 32 34 34 3d
       -0.056229647 -0.030693544 -0.046217684 0.04399509
0001e0 24 7a f8 3b ab 16 13 3d 23 fa 6e 3d b1 0e 81 bd
       0.0075829197 0.03591029 0.058344018 -0.0630163
0001f0 25 ad 61 bd a3 30 82 3d f5 ff d4 bc 84 12 26 3d
       -0.055096764 0.06356933 -0.026000956 0.040545
000200 a6 8f 07 3d cb 5a 24 3c c9 e2 6c 3d 71 b3 25 bd
       0.03309598 0.010031412 0.057833467 -0.04045433
000210 6a 83 25 3d fe 72 07 bb 8a 42 a6 3b 39 1b c5 3c
       0.04040853 -0.0020667906 0.00507385 0.024060832
000220 07 25 a0 bd 35 a3 ba bd 92 3b cb bd b6 bb 79 3d
       -0.078195624 -0.091131605 -0.099234715 0.06097003
000230 1d f5 82 3d 71 b0 8a 3d 5e 8b eb 3c ab e1 79 3d
       0.06394408 0.06771935 0.028752979 0.06100623
000240 4e 39 7e bc 5c 32 4e 3d 96 6a 50 bd 46 83 aa bc
       -0.015516592 0.050340995 -0.0508829 -0.02081455
000250 38 70 91 bc fe d5 da 39 fe 1f ab bc 06 32 b4 3a
       -0.017753705 0.00041739637 -0.020889279 0.0013747818
000260 2a 6d 38 3c f2 6a c2 bc 0e 26 cc bd 7e 39 b8 3b
       0.0112564955 -0.023732636 -0.09968196 0.005622088
000270 12 5e 92 bd 93 59 43 3d 6f 61 c4 3d 2a a8 17 bd
       -0.07146849 0.047692847 0.095888965 -0.037025608
000280 df 5e 4b 3d 94 b9 45 3d 87 69 72 3d d3 bb 03 bd
       0.049651023 0.048272684 0.05918267 -0.032161545
000290 20 7e 79 3d 67 30 32 bc 37 a4 d2 bc e2 af d6 bd
       0.060911298 -0.010875798 -0.02571307 -0.10482766
0002a0 68 6d 58 3d 40 29 90 3c 3b fd 9a bd d2 c5 da 3c
       0.052838713 0.017597795 -0.07567831 0.026705656
0002b0 8e 1a 69 bd 21 71 f2 bd 2b 0f 60 bb 27 08 91 bc
       -0.05691009 -0.11837984 -0.0034188728 -0.017704083
0002c0 b5 10 3d bd 07 eb 97 3b 21 d9 0b 3d 2b 6d 63 3d
       -0.04615851 0.0046361717 0.034142617 0.055524033
0002d0 8e c5 01 bc 7c b0 5c 3d 31 88 41 bc 06 01 a6 bc
       -0.007920636 0.053879246 -0.011812256 -0.02026416
0002e0 16 71 1a 3d 08 93 56 bd c7 0b a9 bc fe 61 90 3d
       0.037705503 -0.052386314 -0.020635499 0.070499405
0002f0 da b4 9d 3a 49 e6 1e bd 36 db eb 3c 9c e4 09 3d
       0.0012032047 -0.038793836 0.028791051 0.033665285
000300 75 8d 86 bd 5e 13 8b 3c fc f2 e1 3c d7 73 d5 bd
       -0.065699495 0.016977008 0.027581684 -0.10422485
000310 38 9a ac bc a3 8a 8e 3d 18 a6 90 3d 67 3e c7 bc
       -0.021069631 0.069600366 0.0706293 -0.024321748
000320 cd ed 9f bd a6 f0 8c 3d b9 08 74 3d 57 91 29 3d
       -0.07809029 0.068818375 0.05957863 0.041398373
000330 6c 5f a1 3d 87 00 b7 3c 43 a6 e4 bc f2 c1 d0 bc
       0.078795284 0.022339119 -0.027911311 -0.025483105
000340 33 39 53 3d 8b 51 da bd ea c6 e0 3c 85 ca 97 3c
       0.05156822 -0.10660084 0.0274386 0.018529186
000350 f6 32 2b 3d 30 6d 82 bd 3f b4 aa bd 3c b5 d8 3c
       0.041796647 -0.06368482 -0.083351605 0.026453607
000360 32 05 3e bd be 0b 97 3d 11 25 57 bc f2 c2 69 3c
       -0.046391673 0.073752865 -0.013131396 0.01426767
000370 13 87 bf 3b 01 2b 70 3d 69 0f b4 3b 3b f5 63 3d
       0.0058449595 0.05863476 0.005495001 0.055653792
000380 96 07 12 bd e2 c7 8e 3d 6a d5 66 3d 2e 03 b8 bd
       -0.035651766 0.06971718 0.05635587 -0.089849815
000390 27 81 42 bd fd c9 1b 3d 26 e5 67 3d d9 db ce 3c
       -0.04748645 0.038034428 0.056615017 0.025251316
0003a0 69 67 a2 bd 2f e0 a0 3d 23 7f cf 3b ee a3 9a 3d
       -0.0792988 0.078552596 0.0063322945 0.07550798
0003b0 85 66 8c 3d da 06 33 3d 5a a7 61 3d c6 a9 2b 3d
       0.068554915 0.043707706 0.05509124 0.041909955
0003c0 60 19 72 3d 6a 9a 99 bd d2 79 77 bc a6 f5 a0 3d
       0.05910623 -0.07500155 -0.015104728 0.07859354
0003d0 39 e6 ce 3d fb d2 d0 bd 2d a8 cf bc 5a 3f 9e bd
       0.10102505 -0.10196491 -0.025348747 -0.07726927
0003e0 bb c5 9b bd db 19 20 3d aa 1e dd 3b b5 6c 09 bd
       -0.076060735 0.039087158 0.00674804 -0.033550937
0003f0 31 f0 ab 3c 66 d2 78 bd f8 b6 7c 3d 5e 0e 44 3d
       0.020988556 -0.060747527 0.06169793 0.047865264

features.3.bias f4 [32]
000000 9c f4 7c 3d 22 55 af bc 78 51 81 bd a7 88 30 3d
       0.061756715 -0.0214029 -0.06314367 0.04309907
000010 96 78 a9 bd 5f 39 96 bd bc 2f 9f bd 5f 28 05 bd
       -0.08274953 -0.073351614 -0.077727765 -0.032509204
000020 5e c3 3c bc aa 36 48 3c 02 a0 e4 3c 2a f7 30 3d
       -0.011521189 0.012220064 0.027908329 0.043204464
000030 9c 06 e2 bb f7 12 19 bd d3 13 00 3d 10 64 9a 3c
       -0.0068977606 -0.037371602 0.031268906 0.018846542
000040 52 19 1a bd c9 63 0e 3d d6 1b 0f bd df 3e 06 3d
       -0.037621804 0.03476313 -0.034938656 0.032774802
000050 9b b0 97 bc 62 36 3f 3d eb 0d 40 bd 8d 24 f1 bc
       -0.01851683 0.046682723 -0.046888273 -0.029436374
000060 1c bd ab bc bb 5f 22 3d a2 29 d9 3c dc f9 82 bd
       -0.020964198 0.039642077 0.02650911 -0.06395313
000070 4b 19 23 3d 80 fa c2 bb d7 3c ab 3d 0b 89 64 3c
       0.039819043 -0.005950272 0.08361214 0.013948689

features.6.weight f4 [64, 32, 3, 3]
000000 cf ad bb bc 80 94 7a bd 1d f4 34 3c 5e 62 50 3d
       -0.022910027 -0.061176777 0.011044529 0.05087506
000010 52 3d ab 3d 0a e3 96 3c e8 60 3a 3d e6 d9 27 bd
       0.08361305 0.018418808 0.045502573 -0.04097929
000020 2b fa 4b bc 68 f6 bd 3c 8f 1e 2e bd f2 36 c9 bc
       -0.012449781 0.023188785 -0.04250961 -0.024562333
000030 fb 6e 50 bd cf 6b 35 bc 15 aa 5e bd 69 7a b4 bd
       -0.05088709 -0.011073067 -0.05436142 -0.088124104
000040 dc 1d 4c bd d6 f4 92 bc 40 4d b3 bb 8c 78 80 3c
       -0.049833164 -0.017939012 -0.0054718554 0.015682481
000050 9e 3d 09 bd d4 a6 7b bd 09 3d bc 3d 27 09 84 3d
       -0.03350603 -0.061438397 0.09191329 0.06447058
000060 d0 56 bc bc cb 36 23 bd 18 31 2b 3b e6 29 37 bc
       -0.022990614 -0.039847177 0.0026121791 -0.011179423
000070 64 f9 79 bc e0 f4 4c 3d 0c 9b 3d 3b af 0c c1 3d
       -0.015257213 0.05003822 0.0028931526 0.09426247
000080 e7 3f 2b 3d 59 1a 5a 3d d1 c8 78 bd e5 a5 47 bb
       0.04180899 0.053247783 -0.06073839 -0.003046387
000090 e3 7e ea bc 1f d3 a7 bb 36 fe 40 3d 34 51 5e 3d
       -0.028624957 -0.005121603 0.047117434 0.05427666
0000a0 f2 9c 7c bc 48 4b 3a 3a 17 08 4f 3d 33 e7 0b 3d
       -0.015418278 0.00071065547 0.050544824 0.034156036
0000b0 0b 3a 11 3d 19 04 68 3c 0f 2a 97 bc 63 0a 5c 3d
       0.035455745 0.014161133 -0.018452672 0.053720843
0000c0 c9 aa cf bd 4f 33 ed bb b2 c8 7a bd ad e1 95 bd
       -0.101399966 -0.0072387825 -0.061226554 -0.07318435
0000d0 d4 71 7c bd c0 64 ca bd c3 10 6d bc 4a cb 3f 3d
       -0.061631992 -0.09882498 -0.014469328 0.04682473
0000e0 cb 49 64 3d 0b 1b c8 bb a1 14 c4 3d 54 d4 12 3c
       0.055734437 -0.0061067394 0.09574247 0.008961756
0000f0 ce 04 bc 3d 34 1d 9f b9 02 05 d7 3b d9 63 bb 3d
       0.09180604 -0.000303486 0.0065618763 0.09149904
000100 f7 4d a1 3d 3d 0f 44 bc 18 f1 8b 3c d7 3b 50 3d
       0.07876199 -0.011966524 0.017082736 0.050838318
000110 f0 eb c7 bc 95 88 04 bd 20 2b 18 bc 15 cd f4 3c
       -0.024404496 -0.032356817 -0.009287626 0.029882947
000120 00 9a 3d bd 31 2a 25 bd 40 aa 97 bd a9 6b 45 3d
       -0.046289444 -0.04032344 -0.074055195 0.048198376
000130 cc b8 c2 3d c8 58 9c 3d b3 57 8e 3c 10 6f c4 3d
       0.095079035 0.07634121 0.017375803 0.09591496
000140 61 58 13 be 9d 8c d9 3c 54 b1 49 bd 71 2c 52 bc
       -0.14389183 0.026556307 -0.04924138 -0.0128279785
000150 de 93 01 bb 81 e9 b8 3b 77 2d 84 bd 2c 13 87 3d
       -0.0019771974 0.00564307 -0.06453984 0.065954536
000160 27 b6 21 3d 85 b1 30 bd 34 20 59 bd 55 c1 9e 3c
       0.039480355 -0.043138046 -0.053009227 0.019379297
000170 af 3f 8d 3c 96 7b 10 bd 05 7e 8b ba 6a 79 96 bd
       0.01724228 -0.03527411 -0.0010642415 -0.07347377
000180 76 34 97 3d d7 25 04 bd a6 c4 b3 3d 88 63 33 bd
       0.07383053 -0.03226265 0.08777742 -0.043796092
000190 93 28 ea 3c 85 88 3c 3c 8c 67 92 3b fe 6b 9d 3c
       0.0285838 0.011507158 0.00446791 0.019216534
0001a0 6d f7 fa 3c c6 68 f1 3c 64 b8 db 3b 43 a3 94 bd
       0.03063556 0.029468905 0.0067053307 -0.07257702
0001b0 fc 4b 8f bd 07 9a 12 3d ac ad 8a bb 45 ed 7d 3d
       -0.06996915 0.035791423 -0.004232129 0.061993856
0001c0 57 b4 03 3d cb 3c 65 bd 47 7c 30 3c cc cb a0 bc
       0.032154407 -0.05596618 0.0107718175 -0.019628428
0001d0 2d a6 60 3d 7f 22 28 3b 28 69 c3 bc 0e a0 49 3d
       0.054845978 0.0025655327 -0.023853853 0.049224906
0001e0 c6 c2 1b bc 82 8a a0 bd 0d 7a 01 3d 35 83 a7 3b
       -0.009506887 -0.07838918 0.031610537 0.0051120766
0001f0 92 07 86 bc eb c3 46 3d 4e 73 37 3c f6 c3 42 3d
       -0.016361032 0.048526686 0.011196924 0.047550164
000200 cd bd 63 bc 1e aa b4 bc a8 92 33 3c 1c 56 04 bd
       -0.0139002325 -0.022053774 0.010960259 -0.032308683
000210 c9 e1 d6 3b 99 fc 16 bc 82 5b 02 bd 0b a7 67 bc
       0.0065576774 -0.009215497 -0.03182555 -0.014138947
000220 7f 25 c9 3b 79 f6 96 bd 54 6e 77 bd 54 b2 32 bd
       0.006138503 -0.0737123 -0.06040795 -0.0436271
000230 da 9d e9 3c 82 f0 80 bb 0b 99 6e bc 75 23 75 bb
       0.028517652 -0.0039349208 -0.0145628555 -0.0037405167
000240 c6 17 cd bc d8 90 3d 3d d4 b1 0b 3d 9d d8 11 bd
       -0.02503575 0.046280712 0.034105137 -0.03560697
000250 48 42 96 3a 18 99 58 bc 01 d5 57 3d 40 d4 83 bd
       0.0011463845 -0.013220094 0.05269337 -0.06436968
000260 00 b2 92 3c 40 b2 a6 bb 3f e6 42 bd b7 30 e3 bb
       0.017907143 -0.005087167 -0.04758286 -0.0069332975
000270 d4 cf 62 3a 7a c1 2f bc 1d 9d b5 bc b3 77 53 bd
       0.00086521846 -0.010727281 -0.022169644 -0.051627826
000280 04 6f af 3c f2 f0 d7 3c 2e 52 49 3d 70 9c 2a bd
       0.021415241 0.026360009 0.04915064 -0.041653097
000290 06 04 56 3d 32 fa 30 3d 6b 4d 1c 3d a8 11 b6 bc
       0.05224993 0.043207355 0.03815977 -0.022225216
0002a0 cb 93 82 bb 38 3d 37 bd e2 dc 80 3b 2d 34 16 bd
       -0.0039849035 -0.044736117 0.0039325813 -0.036670852
0002b0 21 32 e2 3c 44 bf 10 3d ba 93 f2 3c 71 4b 8d bd
       0.027611794 0.035338655 0.029611457 -0.06899155
0002c0 a8 45 2d 3d d2 21 5d bc 2f c7 86 bd 5e f5 e8 3c
       0.042302758 -0.013496833 -0.0658096 0.028437313
0002d0 2a 60 d4 bc 40 24 d2 3d ec c5 72 3d 7e e0 eb 3c
       -0.02592476 0.102608204 0.059270784 0.02879357
0002e0 6c 25 ce 3d 66 c1 49 bd c0 b8 4a 3d 04 7a 14 bc
       0.100657314 -0.049256705 0.049492598 -0.009062294
0002f0 3b 75 04 bd 8a 93 34 3d 3f a5 61 bd 03 11 22 3d
       -0.032338362 0.044086017 -0.05508923 0.039567005
000300 84 4b a5 3b 73 8c e5 bc 0a 57 07 3c bc 4d 08 bd
       0.0050444026 -0.028021073 0.008260498 -0.03327726
000310 35 34 ab bd fb 4c de 3c ef ea ba 3c d9 1b c6 3d
       -0.08359567 0.027136317 0.022817103 0.0967328
000320 7c 96 87 3d aa 5e dd 3b 0d 10 7c 3b 6e 8b cc ba
       0.066204995 0.0067556696 0.0038461715 -0.0015605518
000330 ba 1b 96 bd 03 35 32 bd c1 73 50 bb 26 db cd 3c
       -0.07329507 -0.043507587 -0.0031807276 0.025128912
000340 77 ef 86 bc 44 68 02 bd ce 71 06 bb 17 43 5c 3d
       -0.016471608 -0.031837717 -0.002051461 0.05377492
000350 b4 79 ce ba 83 9a 5b bc 69 15 a6 3c a1 8c 85 bc
       -0.0015752823 -0.013403538 0.020273881 -0.016302409
000360 cb d4 f7 bc 2e 7c 61 3d ae ea 4a 3c 6f 30 e9 bc
       -0.030252835 0.055050068 0.012385054 -0.028465478
000370 1d a4 e5 bc ef 85 0a bd 15 c4 93 3c 63 16 9f 3d
       -0.028032357 -0.033819135 0.018037835 0.07767942
000380 ce b6 af bc b7 b6 65 bd db 64 85 3d 24 b2 77 bd
       -0.021449473 -0.056082454 0.06513377 -0.060472623
000390 d6 05 7e 3c b7 81 37 bd 8f f0 8c ba ed e8 91 bd
       0.015504321 -0.04480144 -0.0010752844 -0.07124505
0003a0 91 d6 96 bd 9e 86 d5 bb f7 98 d5 bd f4 c9 90 bd
       -0.07365144 -0.0065162918 -0.10429566 -0.070697695
0003b0 6c df 71 3d e2 64 da bd 28 fc 4f 3d 33 99 d8 3b
       0.059050962 -0.10663773 0.050777584 0.0066100596
0003c0 22 9c d8 bc d7 0e 2d bd 41 dc f3 3a 94 78 be bd
       -0.026441637 -0.04225048 0.001860507 -0.09300342
0003d0 69 ec 4c 3d 34 99 b0 3d a3 6c 0b 3d 29 11 e8 3c
       0.050030146 0.08622971 0.03403915 0.028328495
0003e0 27 b2 34 3d f9 a1 eb 3c 00 a4 0d bd e4 ca 18 3d
       0.04411521 0.028763758 -0.03458023 0.037302867
0003f0 ff 50 eb 3c c4 dd 06 3d 73 06 8d 3d dd e0 64 bd
       0.028725145 0.032926336 0.06885996 -0.05587851

features.6.bias f4 [64]
000000 a6 f3 13 bb 6a cf ea ba ab a9 31 ba f2 5e 71 bc
       -0.0022575646 -0.0017914597 -0.00067772967 -0.014732109
000010 4d 88 ed bc 17 5c 25 bd 57 0d 6e 3c c0 64 27 3d
       -0.028995657 -0.040371027 0.014529548 0.040867567
000020 a1 38 28 bd cb 67 b6 3c bc f5 c5 bc 66 e9 d7 3c
       -0.04106963 0.02226629 -0.024165027 0.02635641
000030 83 2d da 3c 6b bb 58 bd e9 ee 4d 3c e5 5e 43 bd
       0.02663303 -0.05291311 0.012569168 -0.04769792
000040 9c ec 31 bd ed c9 8e bd f0 a8 1e 3d e2 06 fa bc
       -0.04343854 -0.06972108 0.03873533 -0.03052086
000050 e1 10 00 bd 44 9b 3c 3d a8 db fd 3b 34 c6 3a 3d
       -0.031266097 0.04604651 0.0077471323 0.045599177
000060 9a 91 16 bd ba 2e 52 bc bc 14 0a bc 28 63 b4 3c
       -0.03675995 -0.012828523 -0.008427795 0.022019938
000070 e0 b3 4f 3d 20 3b 07 3c 3b ec 2a bd c1 57 00 bd
       0.05070865 0.008253843 -0.041729193 -0.03133369
000080 2c 08 1c bd fc 05 23 bd d2 fc 0f bd 2f 19 0c bc
       -0.03809373 -0.03980063 -0.035153218 -0.008550926
000090 0a b0 a5 bd a7 ca 91 3c 16 b8 84 bd 56 e5 57 bd
       -0.080902174 0.017796827 -0.06480424 -0.052708946
0000a0 d3 7b 1c 3d b6 9e cf 3c c5 b6 2f bd 5a aa 9b bd
       0.038204025 0.025344234 -0.042898912 -0.07600851
0000b0 35 36 04 bd 9c 0f d2 bb 72 a1 40 3d 9c 6f 37 3d
       -0.03227826 -0.006410552 0.047028966 0.044784173
0000c0 ac af 33 bd ec 20 64 3c 2a 6a e3 bc ae 0b 70 bc
       -0.043868706 0.013923865 -0.027760584 -0.014651222
0000d0 a6 dd c5 3a 91 97 dc 3c b9 c2 04 bd 27 7d 00 bd
       0.0015095964 0.026927741 -0.032412264 -0.031369355
0000e0 8d 41 dc 3c 4c 66 20 3d 5c d3 9b bd 81 b1 10 bd
       0.026886726 0.039160058 -0.07608673 -0.03532553
0000f0 fb 46 92 bd 1a 35 1e 3d 80 d4 85 bc 2b 0f 2e bc
       -0.07142445 0.03862486 -0.01633668 -0.0106237335

regressor.1.weight f4 [64, 576]
000000 99 59 96 3b c9 7a e7 3c ee 6a 11 bd 88 3e 85 3c
       0.0045883176 0.02825679 -0.035502367 0.016265169
000010 7d 33 2b 3b 29 32 82 3c 55 f8 7f bc bb 57 14 bd
       0.0026123219 0.015893059 -0.015623172 -0.03621648
000020 56 dd e2 3c 77 2f dd 3c 55 a4 26 3c 37 08 9a 3c
       0.027693432 0.027000172 0.010171016 0.018802745
000030 7e 40 87 3b 6c 93 2f bd 64 63 9a 3c cb e5 fd 3c
       0.004127561 -0.0428652 0.018846221 0.030993363
000040 a1 4c 2e 3c 2e fc 17 bc 2f 0f 92 bc 9b 7c 65 bc
       0.010638387 -0.009276433 -0.017829506 -0.014006759
000050 78 3b ff 3c ab 84 c2 3c b7 06 0b bc 7c 95 a3 3c
       0.031156287 0.023744902 -0.008485488 0.01996874
000060 61 de b5 3c 05 2e 59 3c f2 b7 7d bc 5c a4 b2 bc
       0.022200765 0.013255601 -0.0154857505 -0.021806888
000070 80 e9 f8 bc 58 12 9c 3c 38 a3 c8 bc ae c1 a0 bc
       -0.030384779 0.019051716 -0.024491891 -0.019623604
000080 ab 23 22 bb 18 6a 64 3b a3 da 1a bd f6 6f 28 3d
       -0.0024740498 0.0034853276 -0.037806164 0.0411224
000090 63 ea ed bc d5 71 d9 bc 28 05 8b b9 88 20 1b bd
       -0.029042428 -0.026543537 -0.00026515988 -0.03787282
0000a0 6d c2 ef bc e9 f3 d5 bc 4b 3b 06 ba 57 b0 f0 bb
       -0.029267514 -0.026117282 -0.00051205297 -0.00734524
0000b0 aa 25 ce 3c bb ca 8d bc fe 4d f0 3c 0b b0 d8 bb
       0.025164444 -0.017308583 0.029334065 -0.006612783
0000c0 16 54 a1 3b a8 b6 0a 3d 83 6e f7 bc d0 0a 2a bd
       0.004923354 0.0338656 -0.030204063 -0.041514218
0000d0 40 e8 a5 bb b0 3e f0 bc ed ec b5 bc 13 75 09 bc
       -0.0050630867 -0.029326767 -0.022207702 -0.008389729
0000e0 fd c1 55 bc b2 dc 21 bd b0 98 0d 3c 67 f6 3a 3c
       -0.013046739 -0.039517112 0.008642361 0.011411286
0000f0 2a 37 a1 3a 20 74 a7 bb 47 e4 0c bb 6b 63 55 3a
       0.0012299765 -0.0051102787 -0.0021498369 0.00081401196
000100 80 1f c4 3b 8e e9 14 bd f0 7e c8 bc 5c 87 ee 3c
       0.0059852004 -0.036355548 -0.024474591 0.029117279
000110 20 05 0d 3d c7 88 05 3c 6d 18 2b bd 87 8e 3b bd
       0.034428716 0.008150286 -0.04177134 -0.04579022
000120 9f 99 16 bd f7 77 14 bd 80 b7 36 bd 01 87 a8 bc
       -0.0367676 -0.03624722 -0.044608593 -0.020572187
000130 fd 93 18 3c 35 92 a6 3b cc ce dd bc 1c 01 fc 3c
       0.009312627 0.005083347 -0.027076147 0.030762248
000140 50 16 2c 3b 09 9b ca 3c 36 ac 92 3b 92 1a 34 bd
       0.0026258416 0.02473213 0.0044760955 -0.043970652
000150 fd bd ce 3c 41 35 1a bc bb 52 3e 3c a7 99 3e bb
       0.025237078 -0.009412111 0.011616404 -0.0029083283
000160 e0 ee cf 3c 93 86 0d bc 96 9d 37 bd ad 51 b2 bc
       0.02538246 -0.008638042 -0.04482802 -0.021767462
000170 30 53 10 bd fb 83 15 bd 88 7a 64 ba db a7 69 bc
       -0.035235584 -0.03650282 -0.00087157683 -0.014261211
000180 1c 07 1b bd ec 04 df bc 7f 77 0f 3d 48 c6 b6 bc
       -0.037848577 -0.027224027 0.03502607 -0.022311345
000190 82 4e fa 3c 23 07 3f bd 56 a4 8e ba 88 d6 89 3c
       0.030555014 -0.046637665 -0.0010882716 0.01682593
0001a0 73 a8 bf 3c 4e 6b 0b 3d 75 bc 7b bb 53 d8 f1 bc
       0.023395753 0.03403788 -0.003841189 -0.029522097
0001b0 1f ac 88 3b 28 46 34 bd da af 20 bd 50 ba 1c 3d
       0.004170909 -0.04401222 -0.039230205 0.03826362
0001c0 16 0d f9 bb 5e ad 04 3d 3b 46 16 bc 20 0a 10 bc
       -0.007600437 0.0323919 -0.009172018 -0.0087914765
0001d0 3b 2e 8d 3c cd 6c 8a 3c 75 6d c0 bc 5e 06 21 bd
       0.017233958 0.016897583 -0.023489693 -0.039312713
0001e0 b2 d5 37 bc 05 25 a5 bc e4 dc b5 bc 28 66 2c 3c
       -0.0112203825 -0.020159254 -0.022200055 0.010522403
0001f0 32 2e c2 3b 16 5a 98 3b 3d 67 92 b9 9b 73 ed 3c
       0.005925917 0.004649411 -0.0002792421 0.028985789
000200 aa fd da 3c 1c 42 a8 bc 79 1d db 3c a5 f3 86 bc
       0.026732285 -0.020539336 0.026747452 -0.0164736
000210 d8 40 97 bc e1 66 41 bd 00 ba 02 3d cb 8f eb bb
       -0.018463537 -0.047217254 0.031915665 -0.0071887723
000220 54 6a ed ba 87 09 cd 3c 9b 47 8f bc b4 9a b9 3c
       -0.0018113353 0.025028957 -0.017490199 0.022656776
000230 bc b0 e5 3c 0e a0 3c bd 24 80 24 bd bb 14 70 3c
       0.028038375 -0.046051078 -0.040161267 0.01465338
000240 d0 ee fc bc 28 cc 09 3d a7 aa 05 3d 3a 00 20 bd
       -0.030875593 0.033641964 0.03263345 -0.039062716
000250 7c 82 01 bd f6 c2 21 bc 40 bf 29 3d 90 66 0b bc
       -0.03161858 -0.0098731425 0.041442156 -0.0085083395
000260 26 a8 02 3c a0 0c f7 3b f6 c8 4b 3c 56 e3 ff bb
       0.00797466 0.007539347 0.01243805 -0.007809083
000270 53 f0 16 3d 1e 04 14 bd ee 9d ce bc 86 88 e0 bc
       0.036850285 -0.03613674 -0.025221791 -0.02740885
000280 20 a3 d1 bc e8 e5 f0 bc fc 2a c4 bc db f3 ab bb
       -0.02559048 -0.029406503 -0.023946278 -0.0052475757
000290 0e 80 38 3c c1 dd 85 3c 0d e1 87 3c 10 ea 8b 3a
       0.011260999 0.016341092 0.016586805 0.0010674614
0002a0 3e a0 73 3c 3e b9 94 3c 55 16 fc bc 2e cf 17 bd
       0.014869748 0.018154737 -0.030772367 -0.037062816
0002b0 52 02 27 3b c9 82 6b 3c 7c 74 d1 3b 52 cc f4 3b
       0.002548356 0.014374443 0.00639206 0.007470646
0002c0 a7 9c 43 bd 93 56 02 3d c5 26 03 3d 4f 78 98 3c
       -0.047756817 0.031820845 0.032019395 0.018612055
0002d0 92 28 12 3d 92 8e 60 bc 32 33 1b bc 72 89 d7 bc
       0.035683222 -0.013705866 -0.009472655 -0.026310656
0002e0 9d d6 f6 38 16 cc 89 bc 04 9c b1 bb 0e 4f a1 3c
       0.00011770169 -0.016820949 -0.00542021 0.019691017
0002f0 af 8a c9 3c 69 be e3 bc bc 18 02 3d 4a de 1f bc
       0.024602262 -0.027800756 0.03176187 -0.009757588
000300 75 8c b9 3a a4 1b 04 3c dc a6 97 bc c0 83 e8 3c
       0.0014156239 0.008063231 -0.018512182 0.028383136
000310 1f d4 e3 3c 58 e5 54 3c 97 b6 02 bd ad f7 ee ba
       0.027811108 0.012994133 -0.031912412 -0.0018231772
000320 91 63 27 3b fc 82 ed bc 5d 8c 8f bb 14 79 f7 3b
       0.0025541524 -0.028993122 -0.0043807463 0.0075522754
000330 3a d6 fa bb 0c b3 b6 bb bb 01 d1 3c 1f 6c 63 bb
       -0.0076549323 -0.0055755433 0.02551352 -0.0034701896
000340 76 ec e8 3c 35 12 e4 ba 91 b8 ea 3c 23 31 ee 3c
       0.028433066 -0.0017400446 0.028652461 0.029076165
000350 dd 40 21 3b ba 29 db 3c e2 fc 13 3d dc af 5f 3c
       0.0024605312 0.026753295 0.03612984 0.013652768
000360 30 25 29 3c 30 81 b5 bc 50 58 42 3c bb 6b 13 3d
       0.010323808 -0.022156328 0.011861876 0.03599141
000370 eb cc ae bc 00 cc d7 bc ab b9 87 bb 2b 72 01 3d
       -0.021337947 -0.026342392 -0.0041420064 0.03160302
000380 56 e3 ff 39 82 16 0b bd d3 65 34 bd c5 ad 93 bc
       0.0004880677 -0.033957012 -0.04404242 -0.018027196
000390 e3 74 07 bd 62 c7 f9 bc c5 5d 11 bd 55 e0 28 bd
       -0.033070456 -0.030490581 -0.035489816 -0.041229565
0003a0 53 3a 0a 3d da 3b 12 bc 4b 1d e7 bc 28 77 e6 3c
       0.03374703 -0.008925403 -0.02821221 0.02813299
0003b0 4b 3a 81 3b 46 9f 24 bd a6 7e 14 bd 58 a8 98 3c
       0.0039437166 -0.040190957 -0.036253594 0.01863496
0003c0 b0 23 70 bc d0 1e 41 3c e2 8e 15 bd 24 d4 28 3c
       -0.014656946 0.011787131 -0.036513217 0.0103044845
0003d0 c9 52 f9 3c 2c 7d 8f 3c 24 4b ea bc 7c 04 03 bd
       0.030434983 0.017515741 -0.028600283 -0.0319867
0003e0 c0 ab 3d bd 59 ef a8 bc be 8b 02 bd bd 6e d1 3c
       -0.04630637 -0.020621942 -0.03187155 0.0255655
0003f0 5e 52 ec bb e6 28 d8 bc 74 d7 2b bd 86 29 d4 3c
       -0.0072119674 -0.02638669 -0.04195352 0.025898706

regressor.1.bias f4 [64]
000000 b5 62 dc bc 41 b5 b6 bb 1d 2f 5a 3c d1 c2 ec 3b
       -0.026902536 -0.0055758064 0.013316897 0.0072253724
000010 77 8a 0e 3d 2b c4 44 3a 8a 08 cc bc c0 f4 8e 3b
       0.03480002 0.0007506038 -0.024906415 0.0043626726
000020 5f 10 17 3d bc e8 4d 3d da 3b 87 3b 30 40 7c 3c
       0.036880847 0.05027078 0.004127008 0.015396163
000030 e8 8b dd 3c 39 88 72 3d da 10 83 3a 2b 21 e8 bc
       0.027044252 0.059211943 0.0009999529 -0.028336128
000040 8e 7e d7 3c 78 d1 b0 bc 84 af bf bc 9a 49 08 3c
       0.026305463 -0.021584257 -0.023399122 0.008318329
000050 20 16 eb 3c 3b f4 21 3d 7a 77 86 3b 25 30 55 3c
       0.028697073 0.039539557 0.004103598 0.013011967
000060 df 11 55 bd 16 25 b5 bc 10 54 9e 3c b9 f3 b4 bc
       -0.052018996 -0.02211241 0.019327193 -0.022088872
000070 4e b6 96 3c 1c 18 ea bc eb f5 17 bd 88 e1 99 bc
       0.018397477 -0.02857595 -0.03709976 -0.0187843
000080 3a 48 ad 3c a7 b1 3d bd 42 6f c0 ba f2 a9 5b bc
       0.021152604 -0.046312 -0.0014681595 -0.013407217
000090 74 0d 18 bd 41 6b 41 3d b5 5b 58 3c d8 19 e5 bc
       -0.037122205 0.047221426 0.013205458 -0.027966425
0000a0 59 4a f8 3c 7e ae c2 3c bb 04 59 3c 92 05 18 bd
       0.03030889 0.023764845 0.013245757 -0.037114687
0000b0 ba 1f a0 3c c8 d9 d9 3c 95 a3 65 3c 47 51 6f 3c
       0.019546378 0.026593104 0.014016052 0.01460678
0000c0 80 5c 9f 3c 91 93 04 3d d7 54 a3 3c f3 35 87 3c
       0.019453287 0.032367293 0.019937916 0.016505217
0000d0 8f 75 3d 3d fc 57 e0 3c 9c 57 38 bc 30 21 9f bc
       0.04625469 0.027385704 -0.011251356 -0.019425005
0000e0 a7 51 ca 3c 20 c1 7e bc 38 c2 29 ba 3d b3 b8 3c
       0.024697138 -0.015548974 -0.0006475779 0.022546405
0000f0 22 32 cd bc a5 ed 3b 3d 28 2f 9c bc a1 0d 8a 3a
       -0.02504832 0.045880932 -0.019065455 0.0010532626

regressor.4.weight f4 [2, 64]
000000 6e a7 e7 bd 18 03 cb 3d 7b 6b dc bd 34 a7 9e 3d
       -0.113112316 0.099126995 -0.10762688 0.07746735
000010 5c c6 39 bd 58 f9 c8 bd 15 10 92 bd 37 75 c3 bd
       -0.045355186 -0.098131835 -0.07131974 -0.09543841
000020 74 3e 01 3e ad fe 09 3e 3c 64 18 3e 29 21 ac 3d
       0.1262148 0.13476057 0.14881986 0.08404762
000030 21 8f f6 bc cf f3 ac 3d 79 d6 e8 3d 16 49 b3 bd
       -0.030097546 0.0844494 0.113690324 -0.087541744
000040 7c 15 b4 bd 75 40 99 3c ab de 28 bd f0 d4 df 3d
       -0.0879316 0.018707493 -0.041227978 0.109292865
000050 8a 7b 95 bd 4d 49 13 3e 2e 25 af bd 56 f0 c5 bd
       -0.07298954 0.14383431 -0.08552013 -0.09664981
000060 19 d4 3e 3c 10 fd bf 3d f0 35 54 bd 2e 8e bf bd
       0.011647248 0.0937444 -0.05180925 -0.093532905
000070 92 7c 4b bd 6e 4c e8 bb 8b bc 93 3d 0f c5 ee 3d
       -0.049679346 -0.0070891893 0.07213696 0.1165868
000080 b9 73 7b bc c6 99 26 bd 23 97 df 3d be 87 85 bd
       -0.015347415 -0.040673994 0.10917499 -0.065200314
000090 56 eb 45 3d cd e8 8a bc dd ef 36 bd fa b0 6a bd
       0.048320137 -0.016956711 -0.044662345 -0.057297684
0000a0 50 a0 c0 3d 3e 0e 9a bc 53 d5 04 3c c3 92 c7 3c
       0.09405577 -0.01880562 0.008107501 0.024361974
0000b0 32 93 00 3e 40 12 e7 3d cc 39 ab 3a bd a9 cf bd
       0.1255615 0.11282778 0.001306349 -0.10139797
0000c0 8e 27 93 bc 84 4e c7 3d 42 4e 8c bd 3d d4 74 3d
       -0.017963197 0.097317725 -0.06850864 0.05977272
0000d0 f1 53 bd bd fb 15 f3 3d ff 0b 98 3d eb bb 57 bd
       -0.09244526 0.11869427 0.07424163 -0.052669447
0000e0 a0 28 d7 bd b0 94 fa 3c db 95 a6 3d 47 a4 d9 bd
       -0.105057955 0.030588478 0.081340514 -0.106270365
0000f0 70 07 c6 3d 8d 54 92 3d f2 35 9d bd 9b 0d 04 3d
       0.09669387 0.07145033 -0.07676305 0.032239538
000100 db 9f 02 3e 8c 10 82 bd 2c a3 8c bc 08 22 ad 3c
       0.12756293 -0.06350812 -0.01716765 0.021134391
000110 84 46 06 3e 4e ae f6 bb da b1 82 3d b8 f3 8b 3d
       0.13112837 -0.007528103 0.06381579 0.06833595
000120 06 8e c0 bd df 2c 00 3d 9c 55 d4 bd 75 b5 82 3d
       -0.09402089 0.031292792 -0.10367891 0.063822664
000130 22 b8 e5 3d da a6 b7 bc 24 34 57 3d 8a 11 96 3d
       0.11216761 -0.022418428 0.05253996 0.07327564
000140 ee 5b 95 bd 3c 29 33 bd 28 7b e4 bd 4d 03 f9 bc
       -0.07292925 -0.043740496 -0.11156303 -0.030397082
000150 31 21 71 bd 90 dc 7b bd e7 ea 3f bd cf 5c 09 3d
       -0.058869544 -0.06148964 -0.04685488 0.033535775
000160 76 f2 9a bd 13 dc 1c bd 73 3e e7 bd be e1 c9 bd
       -0.07565777 -0.038295817 -0.11291208 -0.0985751
000170 7b bd ed bd 26 c8 42 3d 7a f1 9a bd f0 2e 66 3d
       -0.11608406 0.047554158 -0.07565589 0.056197107
000180 84 85 e0 3c 8f f1 79 bd f9 ce 89 3c e3 48 d3 bd
       0.027407415 -0.061021384 0.016822325 -0.103166364
000190 d8 a1 7b bd 4c f8 1f 3e ca 00 9a bc 26 22 13 bc
       -0.061433643 0.15622061 -0.018799204 -0.00898031
0001a0 00 25 e0 bc b9 e6 16 3e 9d d4 51 3c ae 90 d0 bd
       -0.027361393 0.14736451 0.012807039 -0.101838455
0001b0 19 cd 0a bc 05 dc ca bc 4b 5b 8b 3a 23 86 a3 bd
       -0.008471751 -0.024763117 0.0010632066 -0.07984569
0001c0 3b 6d 13 bd 05 40 bd bc a5 5c 5a bd 3e 01 0b 3b
       -0.035992842 -0.023101816 -0.05331101 0.0021210457
0001d0 f7 e2 35 3c b1 6d a9 3d 49 66 e7 bd 64 73 03 3e
       0.011101476 0.08272875 -0.11298806 0.12836987
0001e0 7c 0f 15 3c 27 7c 52 3d a7 9d 8f bc 4d 00 b8 3d
       0.00909793 0.051387932 -0.01753123 0.08984432
0001f0 ba 06 63 3d ee 17 d6 bc ad 65 3f 3d 59 46 a1 3d
       0.055426337 -0.026134457 0.046727825 0.07874746

regressor.4.bias f4 [2]
000000 9d 87 6f 3d 5b 70 8a 3d
       0.05847894 0.06759711
